…
[*] Loaded dataset 'peptides-structural' from 'OGB':
  Data(edge_index=[2, 4773974], edge_attr=[4773974, 3], x=[2344859, 9], y=[15535, 11])
  undirected: True
  num graphs: 15535
  avg num_nodes/graph: 150
  num node features: 9
  num edge features: 3
  num classes: 11
Precomputing Positional Encoding statistics: ['LapPE'] for all graphs...
  ...estimated to be undirected: True
Done! Took 00:03:15.81
GraphGymModule(
  (model): CustomGNN(
    (encoder): FeatureEncoder(
      (node_encoder): Concat2NodeEncoder(
        (encoder1): AtomEncoder(
          (atom_embedding_list): ModuleList(
            (0): Embedding(119, 219)
            (1): Embedding(5, 219)
            (2): Embedding(12, 219)
            (3): Embedding(12, 219)
            (4): Embedding(10, 219)
            (5): Embedding(6, 219)
            (6): Embedding(6, 219)
            (7): Embedding(2, 219)
            (8): Embedding(2, 219)
          )
        )
        (encoder2): LapPENodeEncoder(
          (linear_A): Linear(in_features=2, out_features=32, bias=True)
          (pe_encoder): Sequential(
            (0): ReLU()
            (1): Linear(in_features=32, out_features=16, bias=True)
            (2): ReLU()
          )
        )
      )
      (edge_encoder): BondEncoder(
        (bond_embedding_list): ModuleList(
          (0): Embedding(5, 235)
          (1): Embedding(6, 235)
          (2): Embedding(2, 235)
        )
      )
    )
    (gnn_layers): Sequential(
      (0): GCNConvLayer(
        (norm1_local): BatchNorm1d(235, eps=1e-05, momentum=0.1, affine=True, track_running_stats=True)
        (act): Sequential(
          (0): GELU(approximate=none)
          (1): Dropout(p=0.0, inplace=False)
        )
        (model): GCNConv(235, 235)
      )
      (1): GCNConvLayer(
        (norm1_local): BatchNorm1d(235, eps=1e-05, momentum=0.1, affine=True, track_running_stats=True)
        (act): Sequential(
          (0): GELU(approximate=none)
          (1): Dropout(p=0.0, inplace=False)
        )
        (model): GCNConv(235, 235)
      )
      (2): GCNConvLayer(
        (norm1_local): BatchNorm1d(235, eps=1e-05, momentum=0.1, affine=True, track_running_stats=True)
        (act): Sequential(
          (0): GELU(approximate=none)
          (1): Dropout(p=0.0, inplace=False)
        )
        (model): GCNConv(235, 235)
      )
      (3): GCNConvLayer(
        (norm1_local): BatchNorm1d(235, eps=1e-05, momentum=0.1, affine=True, track_running_stats=True)
        (act): Sequential(
          (0): GELU(approximate=none)
          (1): Dropout(p=0.0, inplace=False)
        )
        (model): GCNConv(235, 235)
      )
      (4): GCNConvLayer(
        (norm1_local): BatchNorm1d(235, eps=1e-05, momentum=0.1, affine=True, track_running_stats=True)
        (act): Sequential(
          (0): GELU(approximate=none)
          (1): Dropout(p=0.0, inplace=False)
        )
        (model): GCNConv(235, 235)
      )
      (5): GCNConvLayer(
        (norm1_local): BatchNorm1d(235, eps=1e-05, momentum=0.1, affine=True, track_running_stats=True)
        (act): Sequential(
          (0): GELU(approximate=none)
          (1): Dropout(p=0.0, inplace=False)
        )
        (model): GCNConv(235, 235)
      )
    )
    (post_mp): MLPGraphHead(
      (mlp): Sequential(
        (0): Dropout(p=0.0, inplace=False)
        (1): Linear(in_features=235, out_features=235, bias=True)
        (2): GELU(approximate=none)
        (3): Dropout(p=0.0, inplace=False)
        (4): Linear(in_features=235, out_features=235, bias=True)
        (5): GELU(approximate=none)
        (6): Dropout(p=0.0, inplace=False)
        (7): Linear(in_features=235, out_features=11, bias=True)
      )
    )
  )
)
accelerator: cuda
benchmark: False
bn:
  eps: 1e-05
  mom: 0.1
cfg_dest: config.yaml
custom_metrics: []
dataset:
  cache_load: False
  cache_save: False
  dir: ./datasets
  edge_dim: 128
  edge_encoder: True
  edge_encoder_bn: False
  edge_encoder_name: Bond
  edge_encoder_num_types: 0
  edge_message_ratio: 0.8
  edge_negative_sampling_ratio: 1.0
…
