…
  Data(edge_index=[2, 4773974], edge_attr=[4773974, 3], x=[2344859, 9], y=[15535, 10])
  undirected: True
  num graphs: 15535
  avg num_nodes/graph: 150
  num node features: 9
  num edge features: 3
  num classes: 10
Parsed RWSE PE kernel times / steps: [1, 2, 3, 4, 5, 6, 7, 8, 9, 10, 11, 12, 13, 14, 15, 16, 17, 18, 19, 20]
Precomputing Positional Encoding statistics: ['RWSE'] for all graphs...
  ...estimated to be undirected: True
Done! Took 00:03:26.36
GraphGymModule(
  (model): CustomGNN(
    (encoder): FeatureEncoder(
      (node_encoder): Concat2NodeEncoder(
        (encoder1): AtomEncoder(
          (atom_embedding_list): ModuleList(
            (0): Embedding(119, 207)
            (1): Embedding(5, 207)
            (2): Embedding(12, 207)
            (3): Embedding(12, 207)
            (4): Embedding(10, 207)
            (5): Embedding(6, 207)
            (6): Embedding(6, 207)
            (7): Embedding(2, 207)
            (8): Embedding(2, 207)
          )
        )
        (encoder2): RWSENodeEncoder(
          (raw_norm): BatchNorm1d(20, eps=1e-05, momentum=0.1, affine=True, track_running_stats=True)
          (pe_encoder): Linear(in_features=20, out_features=28, bias=True)
        )
      )
      (edge_encoder): BondEncoder(
        (bond_embedding_list): ModuleList(
          (0): Embedding(5, 235)
          (1): Embedding(6, 235)
          (2): Embedding(2, 235)
        )
      )
    )
    (gnn_layers): Sequential(
      (0): GCNConvLayer(
        (norm1_local): BatchNorm1d(235, eps=1e-05, momentum=0.1, affine=True, track_running_stats=True)
        (act): Sequential(
          (0): GELU(approximate=none)
          (1): Dropout(p=0.2, inplace=False)
        )
        (model): GCNConv(235, 235)
      )
      (1): GCNConvLayer(
        (norm1_local): BatchNorm1d(235, eps=1e-05, momentum=0.1, affine=True, track_running_stats=True)
        (act): Sequential(
          (0): GELU(approximate=none)
          (1): Dropout(p=0.2, inplace=False)
        )
        (model): GCNConv(235, 235)
      )
      (2): GCNConvLayer(
        (norm1_local): BatchNorm1d(235, eps=1e-05, momentum=0.1, affine=True, track_running_stats=True)
        (act): Sequential(
          (0): GELU(approximate=none)
          (1): Dropout(p=0.2, inplace=False)
        )
        (model): GCNConv(235, 235)
      )
      (3): GCNConvLayer(
        (norm1_local): BatchNorm1d(235, eps=1e-05, momentum=0.1, affine=True, track_running_stats=True)
        (act): Sequential(
          (0): GELU(approximate=none)
          (1): Dropout(p=0.2, inplace=False)
        )
        (model): GCNConv(235, 235)
      )
      (4): GCNConvLayer(
        (norm1_local): BatchNorm1d(235, eps=1e-05, momentum=0.1, affine=True, track_running_stats=True)
        (act): Sequential(
          (0): GELU(approximate=none)
          (1): Dropout(p=0.2, inplace=False)
        )
        (model): GCNConv(235, 235)
      )
      (5): GCNConvLayer(
        (norm1_local): BatchNorm1d(235, eps=1e-05, momentum=0.1, affine=True, track_running_stats=True)
        (act): Sequential(
          (0): GELU(approximate=none)
          (1): Dropout(p=0.2, inplace=False)
        )
        (model): GCNConv(235, 235)
      )
    )
    (post_mp): MLPGraphHead(
      (mlp): Sequential(
        (0): Dropout(p=0.2, inplace=False)
        (1): Linear(in_features=235, out_features=235, bias=True)
        (2): GELU(approximate=none)
        (3): Dropout(p=0.2, inplace=False)
        (4): Linear(in_features=235, out_features=235, bias=True)
        (5): GELU(approximate=none)
        (6): Dropout(p=0.2, inplace=False)
        (7): Linear(in_features=235, out_features=10, bias=True)
      )
    )
  )
)
accelerator: cuda
benchmark: False
bn:
  eps: 1e-05
  mom: 0.1
cfg_dest: config.yaml
custom_metrics: []
dataset:
  cache_load: False
  cache_save: False
  dir: ./datasets
  edge_dim: 128
  edge_encoder: True
  edge_encoder_bn: False
  edge_encoder_name: Bond
  edge_encoder_num_types: 0
  edge_message_ratio: 0.8
  edge_negative_sampling_ratio: 1.0
…
